train/regression/price_prediction_model.pth (torch, 17930 bytes, 9 tensors)

fc1.weight f4 [64, 11]
0	0x3e8ae451	0.27127317
1	0xbf16882b	-0.58801526
2	0xbd9a4e85	-0.07534508
3	0xbdd627e2	-0.10456826
4	0x3e1b5e50	0.15172696
5	0x3e93413c	0.28760707
6	0xbdfd7614	-0.12376037
7	0xbe7eb7bc	-0.24874777
8	0xbe122aea	-0.14274183
9	0xbca0bbe0	-0.019620836
10	0x3deacdce	0.114650354
11	0xbe2ddd71	-0.16979004
12	0xbf17dbba	-0.5931965
13	0x3dd13d02	0.102167144
14	0xbe37e118	-0.1795696
15	0xbe82ac2e	-0.25521988
16	0xbe1d249c	-0.15345997
17	0x3e810e52	0.25206238
18	0xbe810a96	-0.2520339
19	0x3e4218ff	0.18954848
20	0xbe6f8209	-0.23389448
21	0xbef8c28c	-0.48585927
22	0x3e09fcac	0.13475293
23	0x3e5c72bb	0.21528141
24	0xbdfb2031	-0.122619994
25	0xbea178d5	-0.315375
26	0x3e862f76	0.26208085
27	0xbf076aa7	-0.52897114
28	0x3e56dc6b	0.2098252
29	0x3d77334f	0.060351666
30	0xbe91c0ab	-0.28467306
31	0xbe7f681b	-0.24942057
32	0x3e3a64c0	0.18202496
33	0x3eb4fe68	0.35350347
34	0x3e24d069	0.16095127
35	0x3e7202aa	0.23633829
36	0xbdcb578e	-0.09928809
37	0x3e126969	0.14298023
38	0xbeac0624	-0.33598435
39	0xbe505159	-0.20343532
40	0x3e223b84	0.15843016
41	0x3dc3724e	0.09543286
42	0xbe69a701	-0.22817613
43	0xbe8cda23	-0.27510175
44	0xbed2b29b	-0.4115189
45	0x3e61e8a6	0.22061405
46	0x3e36287e	0.17788884
47	0xbdf63fa6	-0.12023859
48	0x3cdce4d5	0.026964584
49	0x3eeb2b70	0.45931578
50	0x3e157bf5	0.14598067
51	0x3ea3346a	0.31875926
52	0xbed59523	-0.41715345
53	0xbf07fa2f	-0.53116125
54	0xbdf2d9de	-0.11857961
55	0xbcac9205	-0.021065721
56	0xbe8d8e93	-0.27647838
57	0x3e0489f3	0.12943248
58	0xbc8d0b19	-0.017217206
59	0xbda3a439	-0.07990307
60	0x3d47e1a2	0.048799165
61	0x3e13db57	0.1443914
62	0xbd774749	-0.060370717
63	0x3dfed333	0.12442627
64	0xbdabcf76	-0.083891794
65	0xbd3da312	-0.046298094
66	0xbec0954b	-0.37613901
67	0xbe83b37a	-0.25722867
68	0xbedac8a9	-0.42731217
69	0x3edcb46a	0.43106395
70	0x3d43a0f4	0.04776092
71	0xbe3912e6	-0.18073615
72	0xbe676141	-0.22595693
73	0x3e795545	0.24348934
74	0x3e802d3b	0.25034508
75	0x3e8c0ff4	0.2735592
76	0x3e64b6de	0.22335383
77	0xbdf1b99d	-0.11802981
78	0x3ecae1b6	0.3962533
79	0x3e225e41	0.15856268
80	0x3e4b3fd0	0.19848561
81	0xbc01a4d1	-0.00791283
82	0x3e48bc4f	0.19603084
83	0xbdf94d08	-0.12172896
84	0x3e301255	0.17194493
85	0xbe596b6f	-0.21232389
86	0x3e2d5d43	0.16930108
87	0x3e264f6e	0.16241238
88	0xbeeb1c74	-0.45920146
89	0x3e3273df	0.17427014
90	0xbd9d2e4a	-0.076748446
91	0x3d4cfe22	0.050047047
92	0xbb3e06ce	-0.0028995755
93	0x3e5a9a67	0.21347962
94	0x3e7f1581	0.24910547
95	0x3e740833	0.23831253
96	0x3e82ed69	0.25571755
97	0x3e84f45b	0.25967678
98	0x3e0fcc40	0.14042759
99	0xbf28b12b	-0.65895337
100	0x3ec4b920	0.3842249
101	0x3da01a20	0.07817483
102	0x3ddf1ba6	0.108939454
103	0xbda9d56e	-0.082926616
104	0xbc279777	-0.010228983
105	0xbe0e687c	-0.13907045
106	0xbe9e29a9	-0.3089116
107	0x3eed2d5f	0.46323678
108	0x3d3eaca3	0.046551358
109	0xbdb31c9e	-0.08745693
110	0xbe9baf36	-0.30407113
111	0x3d4bf35b	0.04979263
112	0xbe85da3c	-0.26143062
113	0x3cb2b995	0.021817008
114	0xbdf76c30	-0.12081182
115	0x3da2c18f	0.079470746
116	0x3d844cc9	0.06459958
117	0x3d8bb516	0.06821649
118	0x3d662283	0.056185257
119	0x3e96b9b9	0.2943857
120	0x3df53c51	0.11974395
121	0x3dff4771	0.12464798
122	0x3efaacae	0.4895987
123	0xbe3598e8	-0.1773411
124	0xbe77d911	-0.24203898
125	0x3e62bc7e	0.22142217
126	0x3ca2d5a2	0.019877259
127	0x3e7f4e87	0.249323
128	0x3e7276c4	0.23678118
129	0x3dadee41	0.08492709
130	0x3e3ec571	0.18630005
131	0x3e1661af	0.14685701
132	0x3b98b98e	0.0046607917
133	0x3e89e82d	0.2693495
134	0xbd94c245	-0.072636165
135	0x3eafcc2e	0.34335464
136	0xbd422ea4	-0.04740776
137	0x3e142f40	0.1447115
138	0xbde116af	-0.10990655
139	0xbdc7e2e8	-0.09760076
140	0xbeac5513	-0.33658656
141	0xbe7f6ffd	-0.24945064
142	0xbeeba8b5	-0.4602715
143	0xbd87d1d0	-0.066318154
144	0xbe159e20	-0.14611101
145	0xbe72cf7b	-0.2371196
146	0xbeac6171	-0.33668092
147	0xbeaa58b6	-0.33270806
148	0xbdd6280f	-0.10456859
149	0x3e604593	0.2190154
150	0xbcb2e264	-0.021836467
151	0x3e43da95	0.19126351
152	0x3e46e542	0.19423392
153	0xbe3debc6	-0.18546972
154	0xbeeb12a2	-0.45912653
155	0xbf073311	-0.52812296
156	0xbe4de11f	-0.20105408
157	0x3ebf7dc7	0.37400648
158	0x3d154eb5	0.036452014
159	0x3d7eca73	0.06220479
160	0x3de64111	0.11242879
161	0xbf22fdf7	-0.6366877
162	0x3e711dac	0.23546475
163	0xbe33117b	-0.17487137
164	0x3e221065	0.15826567
165	0xbde2b879	-0.110703416
166	0xbda67361	-0.081274755
167	0x3df3d4cb	0.119058214
168	0xbd881dcb	-0.066463076
169	0x3e960893	0.29303417
170	0xbe541557	-0.20711266
171	0x3d205856	0.039146744
172	0xbdb09fe2	-0.08624245
173	0x3dc34d20	0.09536195
174	0xbe019e8a	-0.12658134
175	0xbe87d9f0	-0.2653346
176	0xbe528c25	-0.20561273
177	0x3e785a71	0.2425325
178	0x3ddd8c87	0.10817819
179	0x3cc387ca	0.02386846
180	0xbe015b74	-0.12632543
181	0xbc1ee458	-0.009697996
182	0x3d0e65c7	0.03476503
183	0xbe8577c3	-0.26067933
184	0xbce5c055	-0.028045813
185	0x3ea059e3	0.31318578
186	0x3c98e196	0.018662255
187	0xbee369f8	-0.44416785
188	0x3df28886	0.11842446
189	0x3e88ee93	0.26744518
190	0x3f05bdb6	0.522426
191	0xbe0e1086	-0.1387349
192	0xbeb32669	-0.34990242
193	0xbdd39834	-0.10331765
194	0x3b0c5030	0.00214101
195	0xbe12b9dc	-0.14328712
196	0x3e419b79	0.18906964
197	0xbe263efa	-0.16234961
198	0x3e05cc57	0.1306623
199	0x3e15dd1c	0.14635128
200	0x3c402fc2	0.011730136
201	0x3e345286	0.17609605
202	0x3cfc0697	0.030764861
203	0xbe895023	-0.26818952
204	0xbd1c7646	-0.03819873
205	0xbf30f0e0	-0.69117546
206	0xbe87cfee	-0.26525825
207	0x3e37266b	0.17885749
208	0xbdc614ec	-0.09671959
209	0x3d937a69	0.07201082
210	0xbd95789f	-0.07298397
211	0xbde79f4c	-0.1130968
212	0xbda2a9a5	-0.079425134
213	0x3cfabc16	0.030607264
214	0xbe1fd368	-0.15607989
215	0x3d1d6b63	0.03843249
216	0xbe85395b	-0.2602032
217	0xbd836b61	-0.06416965
218	0x3ec6860d	0.38774148
219	0xbeec3f49	-0.46142033
220	0x3e6ed91c	0.23325008
221	0xbf1459bb	-0.5794942
222	0x3cbde9a7	0.023182703
223	0xbdd21747	-0.10258346
224	0x3ed72569	0.4202073
225	0x3be06149	0.006847535
226	0xbdd50e28	-0.10403091
227	0x3e507577	0.2035731
228	0xbe3fe06e	-0.18737957
229	0xbddbd8c8	-0.10734707
230	0xbe1cb30d	-0.15302677
231	0x3cd5d29e	0.026101407
232	0x3f0465c5	0.5171779
233	0xbd94d320	-0.072668314
234	0xbe845255	-0.25844064
235	0x3dbef883	0.093247436
236	0xbe8f8707	-0.28032705
237	0x3e983558	0.29728198
238	0x3e73e806	0.23818979
239	0x3e63cb71	0.22245575
240	0xbd037ec3	-0.03210331
241	0xbea83903	-0.32855996
242	0xbf6c9246	-0.92410696
243	0x3d2b0c44	0.041759744
244	0x3e775597	0.24153744
245	0xbe36d7f2	-0.17855814
246	0x3ec55400	0.3854065
247	0xbeafb448	-0.3431723
248	0x3e8bb37a	0.27285367
249	0xbdd5dfc2	-0.10443069
250	0x3de6bcb6	0.112664625
251	0x3e0afdd3	0.13573389
252	0xbcf72a6a	-0.030171592
253	0xbe2d9e73	-0.16954975
254	0xbf129759	-0.5726219
255	0xbdc52879	-0.0962686

fc1.bias f4 [64]
0	0x3e25aec7	0.16179954
1	0x3c585625	0.013204132
2	0x3f111dc3	0.5668604
3	0x3eb05a17	0.34443733
4	0xbdaf48ac	-0.08558783
5	0x3de9c23b	0.11414
6	0xbe2d928f	-0.16950439
7	0xbe765d59	-0.24059047
8	0xbe90eb76	-0.28304642
9	0x3ecc349f	0.39883897
10	0xbda2bf8f	-0.07946693
11	0xbd26c560	-0.040715575
12	0x3e93fae8	0.28902364
13	0x3f15adae	0.5846814
14	0xbeab03db	-0.3340138
15	0x3ee84590	0.45365572
16	0xbea02fb1	-0.31286386
17	0x3e9cb8d5	0.30609766
18	0xbed5c4e6	-0.41751784
19	0x3b3629db	0.0027795944
20	0x3e936b6a	0.28792888
21	0x3f008122	0.5019704
22	0xbe07f373	-0.13276462
23	0x3ed18c2b	0.40927252
24	0xbd07f0a9	-0.033188496
25	0x3eb6ca7f	0.35701367
26	0x3f0167bc	0.5054891
27	0x3e939cb5	0.28830495
28	0xbe05d0d5	-0.13067944
29	0x3e9882f3	0.29787406
30	0xbea166c5	-0.3152372
31	0x3e53251d	0.20619626
32	0xbe5e6c1f	-0.21720932
33	0xbde59fb6	-0.11212103
34	0x3e0c1b62	0.1368232
35	0x3e8946a4	0.26811707
36	0x3cc8cdcc	0.024512194
37	0x3ed0299b	0.40656742
38	0xbe24310d	-0.16034336
39	0x3e980544	0.29691517
40	0x3eb01537	0.34391186
41	0x3eb32dfb	0.34996018
42	0x3eb1632a	0.3464597
43	0x3e273ac2	0.16331008
44	0x3e659614	0.22420532
45	0x3ebaa054	0.36450446
46	0xbe8b4cf3	-0.27207145
47	0xbef10518	-0.470742
48	0x3d4b9d44	0.049710527
49	0xbec0a6bb	-0.37627205
50	0x3ec10ced	0.37705174
51	0xbd8ee134	-0.06976548
52	0x3debfcf2	0.11522855
53	0x3ec8b995	0.39204088
54	0x3cf99f5f	0.030471502
55	0x3eab5c50	0.33468866
56	0x3e33583d	0.17514129
57	0x3dce4e26	0.100734994
58	0xbe3c6e45	-0.1840144
59	0xbeb9a16f	-0.36255977
60	0x3cd1c707	0.025607599
61	0xbe20905a	-0.15680066
62	0xbef66bae	-0.48129028
63	0x3ef7893a	0.48346883

fc2.weight f4 [32, 64]
0	0x3e658e26	0.22417507
1	0x3bedc839	0.0072565344
2	0x3d43ebd2	0.047832318
3	0xbf3c600f	-0.73584074
4	0xbf079b84	-0.52971673
5	0xbcafce43	-0.021460658
6	0xbea7b0e7	-0.32752153
7	0x3e98d763	0.29851827
8	0x3e84a381	0.25905994
9	0xbd8f8457	-0.07007664
10	0x3dde14b2	0.10843791
11	0x3d0a7ec5	0.033812303
12	0xbdae100f	-0.08499157
13	0xbe828bd7	-0.25497314
14	0x3e8d36f8	0.27581
15	0xbe98e81c	-0.29864585
16	0x3e37561f	0.17903946
17	0x3eb6b1a3	0.356824
18	0xbc72d857	-0.014822087
19	0x3d2f11e9	0.04274169
20	0xbeb216f7	-0.34783146
21	0xbee51ce6	-0.4474861
22	0xbf00a49d	-0.5025118
23	0x3d502bc2	0.05082298
24	0x3e5aabc7	0.2135459
25	0xbeec57cf	-0.46160743
26	0xbd933e32	-0.07189597
27	0xbe11dc1b	-0.1424412
28	0x3e038e28	0.12847197
29	0xbea6aeae	-0.32555145
30	0xbf02b3d6	-0.5105566
31	0x3e9564a5	0.29178348
32	0x3d963d00	0.073358536
33	0x3b93a35d	0.0045055584
34	0xbea75d83	-0.3268853
35	0x3e547482	0.20747569
36	0xbe060084	-0.13086134
37	0x3e853ccd	0.2602295
38	0xbf247098	-0.64234304
39	0xbe92fd0e	-0.2870869
40	0xbf136962	-0.57582676
41	0x3d2a52f2	0.04158301
42	0xbe06b899	-0.13156356
43	0x3ec82f92	0.39098793
44	0xbdb61bd1	-0.08892024
45	0xbd9edbf6	-0.07756798
46	0x3ddc5249	0.10757882
47	0xbd058b42	-0.03260351
48	0xbe01e330	-0.12684321
49	0xbde556a5	-0.11198167
50	0x3ef555b1	0.4791694
51	0x3e929c1e	0.28634733
52	0x3f51c740	0.81944656
53	0x3e2441ed	0.16040774
54	0xbd32287c	-0.04349564
55	0x3d887a58	0.0666396
56	0x3ef678ef	0.4813914
57	0xbf128e15	-0.5724805
58	0x3edc7504	0.43058026
59	0xbcaf2f8d	-0.021384979
60	0x3e093c73	0.13401966
61	0xbcf72dc5	-0.030173192
62	0xbf39da35	-0.7259858
63	0xbecb57f2	-0.39715534
64	0x3d7d65f0	0.061864793
65	0xbddaa43c	-0.106758565
66	0x3db865a4	0.090037614
67	0xbdfd9828	-0.12382537
68	0x3def7912	0.11693014
69	0xbdfaff0c	-0.122556776
70	0xbde5f2ac	-0.112279266
71	0x3d42bcd4	0.04754336
72	0x3cd2a8f0	0.025715321
73	0x3df29b6a	0.11846049
74	0xbcba60e8	-0.022751287
75	0xbc4d40e0	-0.012527674
76	0xbd560714	-0.052252844
77	0xbd3e0e20	-0.04640019
78	0xbdbd9fb0	-0.092589736
79	0xbd52c8d0	-0.05146104
80	0xba029e00	-0.000498265
81	0xbd958874	-0.07301417
82	0xbcdfb720	-0.027309
83	0xbde11384	-0.109900504
84	0xbdfa7464	-0.12229231
85	0xbdebcd50	-0.115137696
86	0x3c92ce00	0.017920494
87	0xbbd26580	-0.006420791
88	0x3b584740	0.0033001453
89	0xbdb95252	-0.090489045
90	0xbdb64bf2	-0.08901204
91	0x3cb5b818	0.02218251
92	0x3c2a7530	0.010403916
93	0xbcbaee60	-0.022818744
94	0xbda925be	-0.08259152
95	0xbdce4796	-0.10072248
96	0xbdc9cb4c	-0.09853229
97	0x3d1698b4	0.036766723
98	0x3da94e40	0.08266878
99	0x3cbc3400	0.022974014
100	0x3d8bbf80	0.06823635
101	0xbddfb0d6	-0.10922401
102	0xbdb1415e	-0.08655046
103	0xbc831ba0	-0.016004384
104	0x3d752e28	0.05985847
105	0xbd81ca80	-0.06337452
106	0x3dda3d1c	0.10656187
107	0xbde71d8e	-0.11284934
108	0xbd5ba7bc	-0.05362676
109	0xbcfa1460	-0.030527294
110	0xbdbfd3ae	-0.093665466
111	0x3ccbc5d8	0.024874613
112	0x3da014d8	0.07816476
113	0xbdf38100	-0.11889839
114	0xbd219dac	-0.03945701
115	0xbdeb566a	-0.114910915
116	0xbdff305c	-0.12460396
117	0x3ccfaa80	0.025349855
118	0xbd9956fa	-0.074872926
119	0x3d6cf604	0.057851806
120	0x3db2240a	0.0869828
121	0x3dca60ce	0.09881745
122	0xbd342f58	-0.043990463
123	0x3d800526	0.06250982
124	0xbd5b9998	-0.053613275
125	0xbddee704	-0.108839065
126	0x3d8ea038	0.06964153
127	0xbdec1314	-0.11527076
128	0x3e1ebe65	0.15502317
129	0xbf6208af	-0.882945
130	0x3e1074b7	0.14107023
131	0xbe87549d	-0.26431742
132	0xbeec8018	-0.46191478
133	0xbd8c45ad	-0.06849227
134	0x3e9fa26e	0.31178612
135	0x3d314573	0.043279123
136	0x3ceb2252	0.028702889
137	0x3bc53808	0.0060186423
138	0x3ca6e246	0.020371567
139	0x3c09b364	0.008404586
140	0x3dcb1c08	0.09917456
141	0x3e25cf02	0.16192248
142	0xbe418697	-0.18898998
143	0xbd8575b0	-0.06516588
144	0x3e1be68f	0.1522467
145	0xbe8ef693	-0.27922496
146	0xbddcdf0a	-0.10784729
147	0x3d0699ce	0.032861523
148	0x3de25129	0.11050636
149	0x3e1edaeb	0.15513198
150	0x3d3e6ab5	0.046488483
151	0x3dd3b6b2	0.10337581
152	0x3e119cd8	0.14219987
153	0xbdf67a30	-0.12035024
154	0x3e0f5fe5	0.14001425
155	0xbe448a8a	-0.19193473
156	0x3e195238	0.1497277
157	0x3dbe628d	0.09296141
158	0xbe40fe82	-0.18847087
159	0xbdfcbe0f	-0.12340938
160	0x3e46e32b	0.19422595
161	0x3dff1ff1	0.12457264
162	0xbea741e8	-0.3266747
163	0x3d898a65	0.0671585
164	0x3e69164a	0.22762409
165	0x3e034c08	0.12821972
166	0x3e226e69	0.1586243
167	0x3e841ad7	0.25801727
168	0xbe5f132c	-0.21784657
169	0xbdb6f7f8	-0.08934015
170	0xbe27b14d	-0.16376229
171	0x3dbd96b5	0.09257261
172	0xbe9656a1	-0.29362968
173	0x3df27201	0.11838151
174	0x3d8e8b03	0.06960108
175	0x3e3699e7	0.17832147
176	0x3e656085	0.224001
177	0x3e052117	0.13000904
178	0xbf0d2314	-0.5513165
179	0xbc9cfde7	-0.019164039
180	0x3e3ec9ff	0.18631743
181	0xbd80ae13	-0.06283202
182	0xbe838a32	-0.25691372
183	0x3db367ea	0.087600544
184	0xb9fb3ee6	-0.00047921314
185	0x3e26beac	0.16283673
186	0xbc811049	-0.015754836
187	0xbd3401cc	-0.043947026
188	0xbbb74045	-0.0055923783
189	0x3e336857	0.17520271
190	0x3be06322	0.006847755
191	0xbddc75b1	-0.10764635
192	0x3de6850a	0.11255844
193	0xbe131ef5	-0.14367278
194	0x3e702cfd	0.23454662
195	0x3ea9bfce	0.33154148
196	0x3d6f2b35	0.058390815
197	0x3a8fe782	0.0010979029
198	0x3e824a61	0.25447372
199	0x3d8c9b38	0.06865543
200	0xbdbdb212	-0.0926248
201	0x3c3d8fc2	0.011569919
202	0xbe1b2947	-0.15152465
203	0xbe31472f	-0.1731231
204	0xbc11809a	-0.008880759
205	0x3d893f47	0.06701522
206	0x3e09199d	0.13388677
207	0x3d62b2b3	0.055346202
208	0xbd87bed2	-0.06628193
209	0x3cd1ce26	0.025610995
210	0x3cc04c05	0.023473749
211	0x3e4905e1	0.19631149
212	0x3ea18aac	0.3155111
213	0xbd65481e	-0.05597698
214	0x3c320dc9	0.010867544
215	0x3e9a6c2b	0.3016065
216	0x3de93776	0.113875315
217	0x3eaa5f8a	0.33276016
218	0x3de51e97	0.11187475
219	0xbd9b9e4a	-0.075985506
220	0xbdce224b	-0.100651346
221	0x3e35110a	0.17682281
222	0xbe669cba	-0.22520724
223	0x3e6e0277	0.23243128
224	0x3d3109df	0.043222304
225	0xbcac5f46	-0.021041524
226	0x3ecb68a5	0.39728275
227	0xbdf13cb9	-0.1177916
228	0xbd5d061c	-0.053960904
229	0x3e4f416f	0.20239805
230	0x3d60d450	0.054889977
231	0xbea323e4	-0.3186332
232	0xbd8f6295	-0.07001225
233	0x3e3c12e6	0.18366584
234	0x3e90b82d	0.28265515
235	0xbed5a880	-0.41730118
236	0xbe3798cf	-0.17929386
237	0x3e849b3b	0.2589968
238	0xbe24856d	-0.16066523
239	0x3d3cc742	0.046088465
240	0x3e1954d9	0.14973773
241	0xbe3c12e4	-0.18366581
242	0xbe090453	-0.13380556
243	0xbd5b81c0	-0.053590536
244	0x3d02a434	0.031894878
245	0x3ed122ec	0.40846956
246	0x3ea039b0	0.31294012
247	0xbdb593a1	-0.088660486
248	0x3eb1ee30	0.34752035
249	0xbedb3adb	-0.4281834
250	0xbe6d216c	-0.2315728
251	0xbe5305bb	-0.20607655
252	0x3e8500b7	0.25977108
253	0xbe19e840	-0.15030003
254	0x3db1e149	0.08685548
255	0xbec1ad1e	-0.3782739

fc2.bias f4 [32]
0	0xbd740c05	-0.059581775
1	0xbdce9b1e	-0.1008818
2	0x3c493180	0.012279868
3	0x3ce88acd	0.028386498
4	0x3e8fe990	0.28107882
5	0x3e886375	0.2663838
6	0x3dff6ed3	0.1247231
7	0x3e23580a	0.15951553
8	0xbde7ef41	-0.11324931
9	0xbe14c120	-0.14526796
10	0x3e80bf9d	0.2514619
11	0x3da45b31	0.08025206
12	0x3d8ec84b	0.069717966
13	0x3bc17649	0.0059039933
14	0x3e58cf07	0.21172725
15	0x3ea307fc	0.3184203
16	0x3e1cb12d	0.15301962
17	0x3e0b8c0f	0.13627647
18	0x3e0db08b	0.13836877
19	0x3d330e01	0.043714527
20	0xbca64fe8	-0.020301774
21	0x3b362aef	0.0027796587
22	0x3e1c8cb5	0.1528805
23	0x3d77c2da	0.06048856
24	0x3db18545	0.08667997
25	0x3e1739cd	0.14768143
26	0x3e207732	0.1567047
27	0x3e7b3089	0.24530233
28	0x3db65b48	0.08904129
29	0x3cdbcb3f	0.026830314
30	0x3e332664	0.17495114
31	0x3e062ee4	0.13103825

fc3.weight f4 [16, 32]
0	0x3e7b95f8	0.24568927
1	0xbc82e2c0	-0.015977263
2	0x3e4fdc0a	0.20298782
3	0x3e6d242c	0.2315833
4	0xbd9944b5	-0.07483808
5	0x3e03140b	0.12800615
6	0x3e4d50d2	0.20050362
7	0xbf5c3bb0	-0.86028576
8	0x3e9ba593	0.3039976
9	0xbc8be9a0	-0.017079175
10	0xbf013c98	-0.50483084
11	0xbe87da18	-0.2653358
12	0xbe32d409	-0.17463697
13	0xbf3801d8	-0.71877813
14	0x3eb84ca6	0.35995978
15	0x3da088a5	0.07838563
16	0xbe3f4e39	-0.18682183
17	0xbe15042c	-0.14552373
18	0xbed968c8	-0.42462754
19	0xbe80a5db	-0.25126538
20	0xbdd92267	-0.10602265
21	0xbd336ee8	-0.04380694
22	0xbe37205d	-0.1788344
23	0xbeb7c771	-0.3589435
24	0x3d855377	0.0651006
25	0xbce27f2b	-0.027648529
26	0xbe008b4e	-0.1255314
27	0x3ddb5a0e	0.10710536
28	0xbe96171a	-0.293145
29	0x3e462007	0.19348155
30	0x3df87ade	0.1213281
31	0x3ea5b8d8	0.32367587
32	0xbddc22a6	-0.10748796
33	0x3db1e232	0.086857215
34	0x3dfff87d	0.12498567
35	0x3c4f26c5	0.012643521
36	0xbd986116	-0.07440393
37	0xbc88757f	-0.016657589
38	0xbdd05d2c	-0.10174021
39	0x3d7c8af2	0.061655946
40	0xbb2f084b	-0.0026707824
41	0xbbf0d880	-0.0073500276
42	0xbcb795f0	-0.022410363
43	0xbd54a16d	-0.05191176
44	0xbe0b926c	-0.13630074
45	0x3e0e1051	0.13873412
46	0x3dcec5d1	0.10096324
47	0xbd85810f	-0.065187566
48	0x3dbe601f	0.092956774
49	0xbdf5b85a	-0.11998053
50	0xbd3669e6	-0.044534586
51	0x3e3d9cd5	0.18516858
52	0x3c54124c	0.012943815
53	0xbd477cec	-0.04870312
54	0xbcdf4908	-0.027256504
55	0x3d98c089	0.07458598
56	0xbe4010f9	-0.18756475
57	0xbe38b177	-0.18036447
58	0xbe31b668	-0.17354739
59	0x3d194e7d	0.037428368
60	0xbdea947c	-0.114541024
61	0xbdc58d94	-0.096461445
62	0xbe086c00	-0.13322449
63	0xbdeb5771	-0.114912875
64	0xbde30cb2	-0.11086406
65	0xbddb44ff	-0.10706519
66	0x3c814470	0.015779704
67	0x3dec15c0	0.11527586
68	0xbd3eacef	-0.04655164
69	0xbb116016	-0.0022182516
70	0xbe02a4ca	-0.12758175
71	0xbd9155a6	-0.07096414
72	0xbe3568be	-0.17715737
73	0xbe101886	-0.14071855
74	0x3d313a68	0.04326859
75	0x3cdd15d1	0.026987942
76	0xbb926661	-0.004467771
77	0x3d793d5f	0.060849544
78	0xbb9e3ee1	-0.004829273
79	0xbe3333a7	-0.17500173
80	0xbdfeeaff	-0.12447166
81	0x3ce12e5e	0.02748793
82	0xbe005f5d	-0.12536378
83	0xbe41f0f0	-0.18939567
84	0xbcf7dd6a	-0.030256946
85	0xbe6941fe	-0.2277908
86	0xbdb588dd	-0.08863995
87	0xbdde80b5	-0.10864393
88	0xbd96ad90	-0.07357323
89	0xbd13b085	-0.036057014
90	0x3c3b37e6	0.011426901
91	0xbe05b0bc	-0.130557
92	0xb9e0038d	-0.00042727255
93	0xbdf7a9ee	-0.120929584
94	0x3c3ada64	0.011404607
95	0xbd1f9466	-0.038959883
96	0xbd97586d	-0.07389913
97	0xbe159683	-0.14608197
98	0xbbdfbce0	-0.0068279356
99	0xbdc1f895	-0.094712414
100	0x3cbd20f0	0.023086995
101	0xbde93f1d	-0.11388991
102	0x3b630140	0.0034638196
103	0x3cedf988	0.02904965
104	0xbd75069a	-0.05982075
105	0xbe111865	-0.14169462
106	0xba2d7c00	-0.0006617904
107	0x3cc3d008	0.023902908
108	0xbd884fb8	-0.0665583
109	0xbdbd1bb3	-0.09233799
110	0x3de4427e	0.11145495
111	0xbddf2566	-0.10895805
112	0x3c2965d0	0.010339215
113	0x3c1ec110	0.009689584
114	0x3cdd1350	0.026986748
115	0xbd656c78	-0.056011647
116	0x3dab8e9a	0.083768085
117	0xb83b5000	-4.465878e-05
118	0xbde75374	-0.11295214
119	0x3df74a96	0.12074773
120	0xbdcdc4de	-0.10047315
121	0xbd5548f4	-0.052071527
122	0xbe05ce50	-0.13066983
123	0x3df559be	0.119800076
124	0xbd2cd3c8	-0.042194158
125	0xbd494d5c	-0.04914604
126	0xbe001510	-0.12508035
127	0xbe344321	-0.17603733
128	0xbeb5788f	-0.3544354
129	0x3dbbb326	0.09165029
130	0x3e366caa	0.1781489
131	0xbd04f2eb	-0.032458227
132	0xbc27bc49	-0.010237762
133	0xbded4a36	-0.1158642
134	0xbdbe9d90	-0.093073964
135	0xbf7b71cf	-0.98220533
136	0x3e892b87	0.2679102
137	0xbd12ad2f	-0.035809692
138	0x3e3faf5f	0.18719243
139	0xbea71efc	-0.32640827
140	0x3e63bb63	0.22239451
141	0x3ea69982	0.32538992
142	0x3f0e31d8	0.55544806
143	0xbd7a4208	-0.06109813
144	0xbe8d8486	-0.2764017
145	0x3e11f8df	0.14255093
146	0x3d0ca238	0.03433439
147	0x3e8b50a1	0.27209952
148	0x3e4e3b09	0.20139708
149	0x3e28e7ef	0.16494726
150	0xbe57db77	-0.21079813
151	0xbe275d44	-0.16344172
152	0x3e3c70fc	0.18402475
153	0xbe22cfd3	-0.15899591
154	0xbe26482c	-0.16238469
155	0xbd95c19a	-0.07312317
156	0x3e84e7e6	0.25958174
157	0x3e861f9c	0.2619599
158	0x3e6d3c43	0.2316752
159	0xbf08c250	-0.534215
160	0xbf2a31a4	-0.66481996
161	0xbe0c494a	-0.13699833
162	0x3e6c39e8	0.23068964
163	0x3e0684f5	0.13136657
164	0x3e0aaa2b	0.13541476
165	0x3e1e7fa4	0.15478379
166	0x3e1ae315	0.15125687
167	0xbec5cfa9	-0.38634995
168	0x3e557fc9	0.20849527
169	0xbd804de8	-0.062648594
170	0x3ddb197e	0.106982216
171	0xbe873de9	-0.2641442
172	0x3e9a0906	0.3008501
173	0x3e219bb8	0.15782058
174	0x3f4c60b9	0.7983509
175	0x3e861dba	0.26194555
176	0xbe46f350	-0.19428754
177	0xbe11fb8d	-0.14256115
178	0x3d856e68	0.06515199
179	0x3f188a28	0.5958581
180	0x3db81b92	0.089896336
181	0x3e61d881	0.22055246
182	0x3c3b36f3	0.011426675
183	0xbda7651d	-0.08173583
184	0x3e682337	0.22669683
185	0xbb8f3710	-0.0043705776
186	0x3c1af3fa	0.009457583
187	0xbd0ae017	-0.033905115
188	0xbd065af8	-0.0328016
189	0xbbcb0b7a	-0.0061964365
190	0x3daddead	0.08489738
191	0xbed6048b	-0.4180034
192	0x3e54db9a	0.20786896
193	0x3e323c0b	0.17405717
194	0xbd1c7020	-0.03819287
195	0xbd27f8d6	-0.041008793
196	0x3eb6798d	0.3563961
197	0x3dff085d	0.12452767
198	0xbd788e5b	-0.060682636
199	0x3eadca1e	0.33943266
200	0x3dddf988	0.1083861
201	0x3de2e7d5	0.11079375
202	0x3e3a54ba	0.18196383
203	0xbca95ed0	-0.020675093
204	0xbe2b6973	-0.16739444
205	0xbe6ad45c	-0.22932571
206	0xbf47f288	-0.7810445
207	0x3ed82e4e	0.42222828
208	0x3e3e4def	0.18584417
209	0x3d7cdecd	0.061735917
210	0x3d906b51	0.07051719
211	0xbe8a3ec5	-0.27001014
212	0xbc84df91	-0.016219886
213	0x3e126e69	0.1429993
214	0xbb879778	-0.0041379295
215	0xbe0a6453	-0.13514833
216	0x3e509e42	0.2037287
217	0xbd489d8d	-0.048978377
218	0x3e1f9e95	0.15587838
219	0x3cba6a1a	0.022755671
220	0x3de3f93e	0.111315235
221	0xbd2a18db	-0.04152761
222	0x3e671786	0.22567567
223	0x3eb546ad	0.35405484
224	0xbd90bc95	-0.07067219
225	0xbe11fd20	-0.14256716
226	0x3bb2eca0	0.005460337
227	0xbdace0c6	-0.0844131
228	0xbbd7ea00	-0.0065891743
229	0x3c5ab770	0.013349399
230	0xbe022449	-0.12709154
231	0xbdb0fad4	-0.08641592
232	0xbdda6b49	-0.10664994
233	0xbd876729	-0.06611473
234	0xbdea0ee7	-0.11428624
235	0xbd1aa1e4	-0.037752047
236	0x3cdbe9e8	0.026844934
237	0xbd043f4c	-0.032286927
238	0xbc820380	-0.01587081
239	0xbd69c43c	-0.05707191
240	0x3df58d7a	0.11989875
241	0x3d9a9eb6	0.07549803
242	0x3dec9b5e	0.115530714
243	0xbdff7c12	-0.124748364
244	0xbd6e1cfa	-0.058133103
245	0x3c1fea90	0.009760514
246	0xbdc1c3c0	-0.094611645
247	0xbd92d695	-0.071698345
248	0x3d0bfec0	0.034178495
249	0xbd5cb2bc	-0.053881392
250	0x3cab6df8	0.02092646
251	0xbddc13b1	-0.10745943
252	0x3d82b3a4	0.0638192
253	0xbd3e73e4	-0.04649724
254	0xbcf396e8	-0.029735044
255	0xbd64b580	-0.055837154

fc3.bias f4 [16]
0	0xbc72a39a	-0.014809513
1	0xbe0004bc	-0.12501806
2	0xbcdd957a	-0.027048815
3	0xbe0ab4c6	-0.13545522
4	0x3d6ec1c9	0.058290277
5	0xbabbcf0a	-0.001432867
6	0x3eded7b4	0.43523943
7	0xbe19cbee	-0.15019199
8	0xbe56de5b	-0.2098326
9	0x3cdbb496	0.026819509
10	0xbd42a4b7	-0.047520366
11	0xbe83d7da	-0.2575062
12	0xbe08ddfd	-0.13365932
13	0x3d9b9133	0.07596054
14	0xbd0a82f7	-0.033816304
15	0x3e05ddb3	0.13072853

fc4.weight f4 [8, 16]
0	0xbf08076a	-0.5313631
1	0x3daaec2a	0.08345826
2	0x3d1cfcc5	0.038326997
3	0x3e3b18f8	0.18271244
4	0x3eb09c44	0.3449422
5	0x3c162cbe	0.009165941
6	0xbed91f66	-0.42406768
7	0x3e3e3984	0.18576628
8	0x3e82d861	0.2555571
9	0x3ef6ef04	0.4822923
10	0xbe172914	-0.14761764
11	0x3e9970a7	0.2996876
12	0xbdf8f3b6	-0.12155859
13	0xbf58fce9	-0.8476091
14	0x3dbb0536	0.09131853
15	0xbf4425d8	-0.76620245
16	0xbf43bc7c	-0.7645948
17	0x3e6a99fc	0.22910303
18	0x3dfcd954	0.123461396
19	0xbdba5fe8	-0.09100324
20	0x3e81da01	0.25361636
21	0x3e9dc0f6	0.3081128
22	0xbeabbaeb	-0.33541045
23	0xbe687c74	-0.22703725
24	0x3eb27a3e	0.34858888
25	0x3ed16cdf	0.40903375
26	0xbd90eb5d	-0.07076142
27	0x3dee1807	0.116256766
28	0x3cd6f213	0.026238477
29	0x3d76f110	0.06028849
30	0xbe5ff002	-0.218689
31	0xbc4de732	-0.012567328
32	0xbf686af8	-0.9078822
33	0x3d49fad8	0.04931149
34	0x3d678745	0.056525487
35	0x3e042a70	0.12906814
36	0x3e65eb34	0.22453004
37	0x3d18acaf	0.03727406
38	0x3d04288e	0.03226524
39	0x3e0bab10	0.13639474
40	0x3d0ea968	0.034829527
41	0x3eae239e	0.3401155
42	0xbe263831	-0.16232373
43	0x3e7d3472	0.24727038
44	0x3db643f3	0.08899679
45	0x3e1b2131	0.1514938
46	0xbd6c69e2	-0.057718165
47	0xbdb8b675	-0.09019176
48	0xbf22c782	-0.63585675
49	0xbdaff865	-0.08592299
50	0xbe23b046	-0.15985212
51	0x3d21f510	0.03954035
52	0x3eb169b9	0.34650972
53	0xbc37229d	-0.011177686
54	0xbe46b7d5	-0.19406064
55	0x3e796df4	0.2435835
56	0xbd162ab2	-0.03666181
57	0x3eda116a	0.4259141
58	0x3dce1814	0.10063186
59	0x3e995b34	0.29952395
60	0xbe031da5	-0.12804277
61	0xbf1799ef	-0.5921926
62	0xbdf3f029	-0.11911041
63	0xbf27caa1	-0.6554356
64	0xbf274907	-0.65345806
65	0x3d0ae127	0.03390613
66	0x3e193b14	0.14963943
67	0x3de280bc	0.110597104
68	0x3ebf6a04	0.3738557
69	0x3e4413e6	0.19148216
70	0x3d98f943	0.07469418
71	0x3e26ac6e	0.16276714
72	0x3e4e5bda	0.20152226
73	0x3dd1e7e5	0.102493085
74	0x3e4947cf	0.19656299
75	0x3e010415	0.12599213
76	0x3eacadc5	0.33726326
77	0xbe92bc2a	-0.28659183
78	0x3db5d144	0.08877805
79	0x3d0d807c	0.03454636
80	0x3da410d8	0.08011025
81	0xbcd0c480	-0.025484324
82	0xbc68a460	-0.014199346
83	0xbdb69a18	-0.0891611
84	0x3dc50954	0.0962092
85	0xbd8a84f8	-0.06763643
86	0x3d2d31a8	0.042283684
87	0xbdf35ba0	-0.118827105
88	0x3db0866c	0.08619389
89	0xbd8eb0a8	-0.06967288
90	0xbcebe210	-0.028794318
91	0xbd5adf98	-0.053435892
92	0xbe44dac6	-0.1922408
93	0xbe6a6fa6	-0.22894153
94	0x3e668ca8	0.22514594
95	0x3e415e86	0.18883714
96	0x3ef404a7	0.476598
97	0x3b9772e0	0.0046218485
98	0xbd14d5ab	-0.036336582
99	0x3d4c8d98	0.04993972
100	0xbca435d6	-0.020045202
101	0xbe2cea66	-0.16886291
102	0x3eb69afb	0.35665116
103	0xbc20a000	-0.009803772
104	0x3dd52d77	0.10409062
105	0xbeca6268	-0.39528203
106	0xbb8a5530	-0.004221581
107	0xbf1e4512	-0.6182414
108	0x3db4ef71	0.08834732
109	0x3e57bc6d	0.21067972
110	0xbdb3a407	-0.0877152
111	0xbdb3dd81	-0.08782483
112	0xbf538c25	-0.8263572
113	0xbe23de11	-0.1600268
114	0xbe0e3a58	-0.13889444
115	0xb9628800	-0.00021603703
116	0x3e53f39e	0.20698401
117	0x3eb9aaa8	0.36263013
118	0x3da19175	0.07889072
119	0xbe12f63c	-0.14351743
120	0xbd511f71	-0.051055375
121	0x3ed4e0a0	0.41577625
122	0x3e37f55c	0.17964691
123	0x3ed73d6c	0.4203905
124	0x3ec34662	0.38139635
125	0xbc249787	-0.010045893
126	0x3d3b7492	0.045765467
127	0xbde5a080	-0.112122536

fc4.bias f4 [8]
0	0xbc02b646	-0.007978028
1	0xbdae9f66	-0.085264966
2	0xbf487aad	-0.7831219
3	0x3df7c029	0.120971985
4	0x3d317c5c	0.04333149
5	0xbdc46048	-0.09588677
6	0x3ea24c3b	0.31698784
7	0xbe176035	-0.14782794

fc5.weight f4 [1, 8]
0	0x3ee88d7a	0.45420438
1	0x3eb6be94	0.35692275
2	0x3e8a2f75	0.26989332
3	0x3e6277e8	0.22116053
4	0x3e926855	0.28595224
5	0x3e06e880	0.13174629
6	0xbe97680d	-0.29571572
7	0x3ec814e9	0.39078453
